thermal_conductivity/model/materials_model.pth (torch, 10384 bytes, 3 tensors)

model.0.weight f4 [512, 2]
000000 87 16 d9 bc df cb c5 3e b3 4d f5 be c1 07 9a be
       -0.0265 0.38632104 -0.47910842 -0.3008404
000010 fd 51 b8 3d 7b 55 8b 3d 57 b2 9b be e0 99 3f 3c
       0.09000013 0.068034135 -0.304095 0.0116944015
000020 ab e8 9a bd 06 54 26 3d 3f 79 eb 3d 42 fe b7 3e
       -0.07563909 0.040607475 0.11497735 0.3593617
000030 eb 5c a0 be 01 f3 f8 bc f8 db 15 3c 10 86 43 bd
       -0.3132089 -0.03038931 0.009146683 -0.047735274
000040 92 0f 00 bd 26 3f d9 3e d7 6f 47 bd fb 75 ef 3e
       -0.03126485 0.4243099 -0.048690643 0.467697
000050 38 64 c8 be b9 f3 d6 be 8b f4 c9 be 3e af 5d be
       -0.3913896 -0.4198282 -0.39444384 -0.21648881
000060 97 02 78 3c dc 15 80 3e 95 5c 80 bb e0 d6 0d bf
       0.015137336 0.25016677 -0.0039172866 -0.55406
000070 bb b3 60 3e e5 50 59 3e 82 b8 b3 bc c4 1f d3 be
       0.21943562 0.21222265 -0.021938566 -0.41235173
000080 92 e8 0f be 23 1d d4 3e 00 1e ea 3c 58 e7 a0 be
       -0.14053562 0.4142848 0.028578758 -0.314265
000090 93 af a6 3e 76 6f 8f bd 37 29 73 be b4 b4 d4 3c
       0.32555827 -0.07003681 -0.23746191 0.025965072
0000a0 92 9c a0 3b 61 c8 b7 3d 5f 5f 01 bc ee f6 bd 3e
       0.004901477 0.08973766 -0.007896273 0.37102455
0000b0 87 24 95 be 69 0b 1a 3f 6d 1f fa 3d 96 bb cb bd
       -0.2912943 0.6017366 0.12213025 -0.099478886
0000c0 c4 6a 2d bf 20 94 89 3e cf fe f5 3e 7b 2f 44 be
       -0.67741036 0.26870823 0.48045966 -0.19158737
0000d0 f6 f1 68 be 4b 16 ec be 1c 23 83 3e 91 61 70 bd
       -0.22748551 -0.46110758 0.25612724 -0.058686797
0000e0 c6 c6 31 3e 03 b1 8d 3e 4e 06 62 3c b4 ff 4e bf
       0.17360982 0.27674112 0.0137954485 -0.8085892
0000f0 03 02 0e bf 55 6c 34 3f 38 13 25 be e4 ff a7 3e
       -0.5547182 0.704778 -0.16120613 0.32812417
000100 e5 39 a9 3b c1 be f8 be da cf 28 bf bd 19 cd be
       0.0051643723 -0.48583034 -0.65942156 -0.400587
000110 58 0f 9a bc 8a 0d cb 3e ff 1b 70 3c 16 d7 92 bf
       -0.018806145 0.39658767 0.014655112 -1.1471889
000120 a0 04 7c bc 21 85 26 3f 2b 3c 21 3e 0c 05 d0 3e
       -0.015381962 0.6504689 0.15745609 0.4062885
000130 4f d1 81 3e 87 55 10 bf ff 33 10 bf 48 ee ea 3e
       0.25355002 -0.56380504 -0.5632934 0.4588492
000140 74 7b b1 bd 36 aa 1c 3d ef 53 1a bf 3c 69 2b bf
       -0.08666125 0.038248263 -0.6028432 -0.6695745
000150 21 de 29 bf 01 6b 8b be 18 cc f7 bd c8 30 3f bd
       -0.66354567 -0.27230075 -0.12099475 -0.04667738
000160 d4 4c 1b 3c 42 0a 69 bf 98 9e cd 3c 9b 02 af be
       0.0094787665 -0.9103128 0.025100037 -0.34181675
000170 29 af 23 3c f6 85 0e be 67 41 00 bf 6a 82 96 be
       0.009990492 -0.1391829 -0.50099796 -0.29396373
000180 cb 45 ec be 28 d6 93 be af ee 84 bc d4 0f b3 3e
       -0.46146998 -0.28874326 -0.016227094 0.34973013
000190 2e f8 15 bf 6a d1 13 3e 34 74 b7 3c a2 d6 9d 3e
       -0.5858182 0.14435354 0.022394277 0.30827814
0001a0 94 3d a9 3c 2d 55 0e be 75 be 08 bf c4 14 f9 bb
       0.020659246 -0.1389968 -0.53415614 -0.0076013524
0001b0 94 1a 7d bd 6e ab 26 3f 10 a3 10 3d 10 9f 70 bf
       -0.061792925 0.6510533 0.03531176 -0.9399271
0001c0 4c 8d 12 be 2b 87 31 3f 3a d5 b5 be dd d3 94 3e
       -0.14311713 0.69346875 -0.3551424 0.2906789
0001d0 8b 48 07 bf 77 34 83 3e d5 15 ba bd a3 32 cc 3e
       -0.52845067 0.25625965 -0.090861954 0.39882383
0001e0 f9 0f f7 be 17 aa d9 be a1 61 8e bd 17 a2 d1 3e
       -0.48254374 -0.4251258 -0.06952215 0.40943977
0001f0 a8 21 63 bd 82 32 1d 3f 0c 6f 9c be 87 b4 0c bf
       -0.05545202 0.61405194 -0.30553472 -0.5496296
000200 4d a9 0d bf 94 88 a9 be 34 a0 71 bd 19 3a 33 3e
       -0.5533646 -0.33112013 -0.058990672 0.17502631
000210 6e f9 c2 bc 57 d0 18 3f dc 14 60 3a 0c 5e 3d bf
       -0.023800578 0.596929 0.000854803 -0.7397163
000220 39 e7 10 bf 7d 82 92 be 53 54 a6 bb 21 d3 d4 bd
       -0.5660282 -0.2861518 -0.00507597 -0.10391832
000230 01 64 50 3c f6 cf 2f bd bb 0d ab be 0e 79 f7 bd
       0.012719155 -0.042922936 -0.33408913 -0.12083636
000240 1e 13 34 be 47 33 7e be 47 96 ef be 36 ee 8c be
       -0.17585418 -0.24824248 -0.4679434 -0.2752549
000250 5c 73 08 3e 04 41 2d be 6c e8 b0 be fc 8d 61 bd
       0.13325256 -0.16919333 -0.34552324 -0.055067047
000260 6d 49 c5 3c 10 ff d7 bd 91 ac 72 be 2f 63 3b be
       0.024082864 -0.10546696 -0.23698641 -0.18299554
000270 f4 eb aa be 7a ea 1e bf 78 93 8b 3d aa 15 b6 be
       -0.33383143 -0.6207653 0.06815237 -0.35563403
000280 6e 2f 21 bf fd f4 16 3f e3 bf 67 bb f8 0f 69 bf
       -0.62962997 0.5896757 -0.0035362176 -0.9103999
000290 4c f3 12 be 86 9d e9 be b1 68 e4 be c2 8b de 3e
       -0.14350623 -0.45627993 -0.44611123 0.43466002
0002a0 82 03 21 bf 9e a0 8a be 45 aa 26 bf e7 71 7e 3e
       -0.6289598 -0.27075666 -0.6510356 0.24848138
0002b0 52 b5 00 bf ac c4 c6 be 71 15 a7 be 73 a5 e6 bd
       -0.5027667 -0.38821924 -0.32633546 -0.11262026
0002c0 83 c4 dc 3c 3f 74 00 bf b6 e5 30 3e e8 ed 61 be
       0.026949173 -0.5017738 0.17275128 -0.2206341
0002d0 ff d8 d8 be 09 d0 d8 3d 3a 01 31 bf ac 61 86 3d
       -0.42353055 0.105865546 -0.69142497 0.06561598
0002e0 e9 68 e9 3c e1 9b b4 3e 10 1c 9b bb 43 dc d9 3e
       0.028492408 0.35275176 -0.00473357 0.4255086
0002f0 af b3 61 be 10 55 a2 be bb ff e1 3c b8 fa 3b be
       -0.220412 -0.31705523 0.027587762 -0.1835736
000300 50 5d 0f 3e 53 02 1e bf c1 68 13 bf 80 c0 69 3e
       0.1400044 -0.61722296 -0.57581717 0.22827339
000310 d0 68 81 be 47 8e 14 be 5b c7 1c 3d d7 5b 2e 3d
       -0.25275278 -0.145074 0.038276058 0.042568054
000320 2d 32 86 be 83 76 ba be 96 9a 24 3e ad 2a 13 bf
       -0.26210156 -0.36418542 0.16074595 -0.57486993
000330 ef d7 12 bf 32 cd f6 3e 9b e3 a3 bd 0f 6b ff be
       -0.5736074 0.48203427 -0.08002397 -0.49886367
000340 08 b3 f0 be 6a 1a 16 3e 71 4e 66 3b 82 cb 36 bf
       -0.4701159 0.14658514 0.003514197 -0.7140428
000350 f0 55 06 bf 5d 8d 26 3f 65 37 79 be 1d 3b 1a bf
       -0.5247488 0.65059453 -0.24337538 -0.6024645
000360 d8 eb a2 be d6 d7 29 bf 43 f4 51 3d 3b 44 15 bf
       -0.3182056 -0.66344965 0.051258337 -0.58307236
000370 98 1c c3 ba 5e 65 d3 bc 59 e2 8b 3b 16 71 5c bf
       -0.0014885841 -0.025805172 0.004268926 -0.86110055
000380 b8 f6 f5 be 81 a3 17 bf 4e 65 b5 3e 64 f6 8d 3e
       -0.48039794 -0.5923386 0.35428852 0.27727044
000390 9a b8 06 bf b0 ec 92 3d 5c b0 01 bf 5c d9 17 3f
       -0.5262543 0.07174051 -0.5065973 0.5931604
0003a0 c2 b2 ca bc 91 a5 d3 be 20 9e e4 3b 99 c2 71 3e
       -0.024743441 -0.41337255 0.006976858 0.2360939
0003b0 bd 91 b2 3c 6f 04 f2 bd 19 3b 23 bf 87 0f a3 3e
       0.021798009 -0.11817252 -0.6376205 0.31847784
0003c0 8b 49 c3 be 26 08 64 3e 07 ae ce be 25 fa f9 be
       -0.38142046 0.22268733 -0.40367147 -0.48823658
0003d0 8f c1 2a bc 5b 20 27 3f 19 89 17 bf 96 62 f2 3e
       -0.0104221245 0.65283746 -0.5919357 0.4734084
0003e0 f4 ec 30 3b ff 94 37 bd c1 0b 98 3d ee a7 83 be
       0.0026996704 -0.044819828 0.07424117 -0.25714058
0003f0 76 82 c8 be e0 60 24 3e 5f 43 2b bf 34 3b 92 bd
       -0.39162034 0.1605258 -0.66899675 -0.07140198

model.0.bias f4 [512]
000000 4e 5e 24 bf 0a 8e 09 3f 5f da a2 bf a1 57 2b 3f
       -0.642064 0.5373236 -1.2722892 0.66930586
000010 b1 ac 4e be 53 cb bb bf 3d 70 12 3d 1a 72 70 bf
       -0.20183064 -1.4671425 0.03575157 -0.93924105
000020 e7 34 ac 3e 97 ae c8 3e a6 6c 94 3e bc 80 89 be
       0.3363411 0.391957 0.28989142 -0.2685603
000030 d7 3b 76 bf 53 57 d4 3e 38 c9 94 bf 43 48 7d 3e
       -0.9618506 0.41472873 -1.1623907 0.24734597
000040 0a e0 d1 3e 9b 6f 4a be c9 c8 b3 3d 9d af d9 3d
       0.4099124 -0.19769137 0.08778531 0.10629199
000050 6b d4 a1 be 4c 25 10 3f c8 ff 00 3f 65 05 65 be
       -0.31607375 0.5630691 0.5039029 -0.22365339
000060 6b 15 e0 be 41 9b 14 3f 8c 10 14 bd 0f 8d 13 3f
       -0.4376634 0.580494 -0.036148593 0.57637113
000070 a8 69 43 be 4c 17 e3 be 5f 65 3f be b7 3b 6a be
       -0.19083273 -0.44353712 -0.18691014 -0.22874342
000080 f1 94 74 be 41 fc 21 be 67 5a 7c 3f bc 79 ab be
       -0.23884942 -0.15818883 0.98575443 -0.33491313
000090 26 dd 1c 3f d1 54 15 bf 25 83 8e be 14 0f 7f 3e
       0.61274946 -0.58332545 -0.2783443 0.24908096
0000a0 f3 ac b8 3e 01 f7 18 bf 26 09 11 3f da cf cb 3e
       0.3606945 -0.597519 0.56654584 0.39807016
0000b0 e0 f4 38 3d e2 4b 5e 3d fc d5 9d bf 34 41 cf 3e
       0.045155406 0.054271586 -1.2330928 0.40479434
0000c0 0d 52 18 3f ee b4 2c bf 63 1f ab 3d 4a f1 b1 bf
       0.595002 -0.67463577 0.08355596 -1.390176
0000d0 8f 70 87 bf 4a f3 27 3f a4 99 9c 3e 53 d5 b7 bf
       -1.0581225 0.65605605 0.30585968 -1.4361976
0000e0 1f 90 b4 be 15 1f 6d bd 82 d9 e8 3e 87 63 89 3e
       -0.35266206 -0.05789097 0.45478445 0.26833746
0000f0 d1 12 ac 3e 7b 5a 21 3e 25 5f b2 3d 44 f5 1e 3f
       0.33608106 0.15757172 0.08709554 0.62092996
000100 36 ba b9 bd 4b 25 90 bc 1c 85 b8 be 45 35 31 bf
       -0.0906872 -0.017595908 -0.36039054 -0.6922191
000110 a0 3c f6 3d b6 27 5e 3f 3e 8f 2c bf 93 2c 2c be
       0.12023282 0.86779344 -0.6740607 -0.16813879
000120 47 65 bc be e0 30 c4 3e 1e 6e 95 be c0 bf 65 be
       -0.36796018 0.3831854 -0.29185575 -0.22436428
000130 74 79 4f 3f 6e df 0b bf be b4 f4 be 3d b0 81 3f
       0.810447 -0.546378 -0.47794145 1.0131909
000140 06 cf 14 3f d9 df 70 3e a3 ce 3c bd 71 03 dc bd
       0.5812839 0.23522891 -0.0460955 -0.10742844
000150 fa 7a c0 be ad 36 2c bf 1c 44 a5 be 6f 2c a7 be
       -0.37593824 -0.6727093 -0.32278526 -0.32651088
000160 0f ee 9a bf 37 93 7d be bf d2 83 be da 42 83 3e
       -1.21039 -0.2476319 -0.25746724 0.2563694
000170 73 3e 1c bf 00 6d c0 bd 41 0a 17 be a0 fe b4 bf
       -0.6103279 -0.0939579 -0.14750005 -1.4140205
000180 46 f7 fa be 21 cf 37 bb c2 67 69 bd 2a 94 ab bf
       -0.4901678 -0.0028047042 -0.056983717 -1.3404591
000190 79 e7 1f bf d5 d5 58 3f e3 78 84 bd a9 d7 d4 be
       -0.62462574 0.8470128 -0.0646837 -0.41570786
0001a0 c7 c5 bc 3e f2 ef 44 bf 19 da d7 be 13 8a bb bd
       0.36869642 -0.7692863 -0.42158583 -0.09157195
0001b0 a0 71 a8 bd 92 70 7e 3f cb 13 8c 3e 9c ce 2d be
       -0.08224797 0.9939052 0.2735885 -0.16973346
0001c0 f0 69 5a be 47 6e c1 bf b3 34 68 3e 82 0f 2b bf
       -0.21329474 -1.5111779 0.22676353 -0.6682054
0001d0 86 90 91 3f 58 ea ff be db d5 90 bf 29 18 92 3d
       1.137223 -0.49983478 -1.1315264 0.071335144
0001e0 78 1c 1a be 6a 85 c1 3e 83 11 d3 3c 2b 57 34 3f
       -0.15049922 0.377971 0.025765186 0.7044551
0001f0 e8 65 11 bf a0 23 22 bf 41 cd 43 3e 1f e0 19 3f
       -0.5679612 -0.6333561 0.19121267 0.60107607
000200 fb ac 1c 3f ab a1 4d 3e 70 78 e5 be fa 67 22 bf
       0.6120145 0.20081203 -0.4481845 -0.63439906
000210 f5 c5 47 3f c8 c2 8c be 93 f4 20 bf 3c eb 23 bf
       0.78036433 -0.27492356 -0.6287319 -0.64030814
000220 66 ec fc bd 60 31 48 3e 96 fa e0 be 20 e9 74 bf
       -0.12349777 0.19550085 -0.43941182 -0.9566822
000230 a7 21 d3 bc 68 80 16 be 2d 9a df 3e c6 e5 1b bf
       -0.025772883 -0.1469742 0.43672314 -0.6089748
000240 4f ce 0f bf e6 f4 2e bf 4f bb d0 3e de 6e c4 3e
       -0.56174177 -0.68342435 0.40767905 0.38365835
000250 55 a0 64 3e 25 a7 03 3f bd 88 1c 3f 72 bd 73 3e
       0.22326787 0.5142692 0.61146146 0.23802736
000260 5c 0b 47 bf 14 75 d5 3e 65 8d 96 3e 16 ea 7d bf
       -0.7775171 0.41690886 0.2940475 -0.9918531
000270 b1 98 9f bf 84 61 11 3d 57 14 8b 3e f7 2b f8 be
       -1.2468473 0.03549339 0.27163956 -0.48471043
000280 39 31 84 3e 57 5e 35 bf bc bd b6 bd 4c c5 0a 3f
       0.25818804 -0.70847076 -0.08922908 0.542073
000290 86 9e 89 be 0d 71 60 3f 39 f4 bc be 1a 09 21 be
       -0.26878756 0.876725 -0.36905077 -0.15726128
0002a0 9d c5 ce 3d 28 54 bb be 12 52 86 bc 84 ff d2 be
       0.100962855 -0.36587644 -0.016396556 -0.41210568
0002b0 35 ee 81 bf 45 9e f0 be cb 36 9d bd 0d ee 49 bf
       -1.015082 -0.4699575 -0.076764666 -0.7887886
0002c0 56 f2 d3 bd 87 7a 8b 3e 1d 18 8c 3e a3 eb 23 3f
       -0.10348956 0.27241918 0.27362147 0.6403143
0002d0 55 27 f4 be 85 71 0c bf c1 7a 1f 3d 37 8c 48 3e
       -0.47686258 -0.5486072 0.038935427 0.19584738
0002e0 7f 67 08 3e f8 70 06 bf 44 13 57 3e f4 04 2e bf
       0.1332073 -0.52516127 0.21003443 -0.6797631
0002f0 b1 a2 37 3e 62 08 62 3e c6 79 ff 3e e5 29 85 be
       0.17933156 0.2207351 0.49897593 -0.26008525
000300 06 85 c2 3e d1 9a 5a bd 30 04 d9 3b dc ba 82 bf
       0.37992114 -0.0533703 0.0066228136 -1.0213275
000310 35 20 f8 be ba f1 18 3e 29 52 9d be 4e 37 0c be
       -0.48462072 0.14935961 -0.30726746 -0.13692972
000320 15 cb 54 bf 03 bb 0a 3f 3c 9b c1 3c dc 53 5f be
       -0.8312238 0.5419161 0.023633592 -0.21809334
000330 ab 03 12 3f 02 b5 11 bf c5 ee b5 be 67 c4 a1 bf
       0.57036847 -0.5691682 -0.3553373 -1.2638062
000340 6d 1f 92 be 4a ad 98 be ca 0b 87 3d 00 15 2d bf
       -0.285396 -0.2981971 0.065940455 -0.6761017
000350 7c 3c e0 be 26 2a a5 be 0b a5 39 3e 64 bd 3b bf
       -0.43796146 -0.3225872 0.18129365 -0.7333586
000360 dd 82 22 bf 9a 2d 5f bf 2a 7c a0 bf 17 47 aa be
       -0.6348093 -0.8717896 -1.2537892 -0.33257362
000370 a2 fd b6 bf 2d 56 b2 bf 3f 32 53 3e 15 9d ea be
       -1.4296153 -1.3932549 0.20624636 -0.4582297
000380 cd 92 59 bc 29 21 29 bf d9 0b 21 3f 5e 4e 3b 3f
       -0.013279629 -0.66066223 0.62908703 0.73166454
000390 86 7a 56 be 6e 30 33 bd 38 5c 83 be 65 a5 c2 3e
       -0.20945176 -0.043747358 -0.25656295 0.3801681
0003a0 2b fd 24 3d 41 18 d4 3c b4 f9 b5 be 37 8d 1d bf
       0.040280502 0.025890471 -0.3554207 -0.615436
0003b0 0a 17 92 bf ee 5b 9d 3e 5f d5 38 bf 3c c3 c9 3e
       -1.1413281 0.307342 -0.7220058 0.39406765
0003c0 c6 4c ae bf 34 c5 0a 3f 2e f4 bd bd d3 f3 7b bf
       -1.3617179 0.5420716 -0.09275089 -0.9841892
0003d0 e0 42 17 bf 1e 82 d5 3c 3a 7b 4e 3f 06 c9 b5 bf
       -0.5908642 0.026063021 0.8065678 -1.4201972
0003e0 dc e4 d0 3e 00 5a 85 be cc a9 7a 3f aa 3c d5 3e
       0.40799606 -0.26045227 0.9791534 0.41647846
0003f0 34 6a 3f bd 57 62 a3 bf 0a 07 19 bf 71 8a db be
       -0.046732143 -1.2764386 -0.59776366 -0.4287906

model.2.weight f4 [1, 512]
000000 ef b8 02 bd 1b 30 d9 3c 6d 5e 83 bc d0 82 81 bc
       -0.031914648 0.026512196 -0.016036237 -0.015809447
000010 bf 61 12 3d ba bf d7 bc 31 7b 63 3c 7e 01 88 bc
       0.03573775 -0.02633654 0.013884352 -0.016602274
000020 26 a6 20 3b f9 88 e0 3c 1d bd bc bc 13 52 0a 3d
       0.0024513095 0.027409064 -0.023039395 0.03376968
000030 5c f4 8e bc 56 b3 e4 3a e0 c8 03 bd c5 47 74 39
       -0.017450504 0.0017448466 -0.03217399 0.0002329639
000040 38 b3 fa 3b 56 29 1a bb dd 35 89 3c cf 4f 1e 3d
       0.007650759 -0.0023523173 0.016749317 0.03865033
000050 99 fe d0 bb 9e d1 b8 3b 52 a1 22 3c 23 a2 21 3c
       -0.0063780067 0.0056402227 0.009926157 0.009865317
000060 22 b5 fa bc c5 f6 18 3d 78 bd 40 3b 8b 05 b6 3c
       -0.030603949 0.037344713 0.0029409807 0.02221944
000070 d2 c2 f7 bb 83 a0 8b 3d a7 b9 fe 3b 8a 75 06 bc
       -0.007561066 0.068177246 0.0077735963 -0.008206734
000080 08 0c c9 b9 3c ff f6 bc 0a 21 12 3e 1f eb d2 3d
       -0.00038346671 -0.030151002 0.14270416 0.10298752
000090 6d b6 e1 3d 34 14 c7 bc c3 14 9e bc 59 df 26 bc
       0.11021123 -0.024301626 -0.01929701 -0.010185086
0000a0 96 27 8f bc 34 60 fa bc e9 60 de 3c 56 e5 11 bc
       -0.01747493 -0.030563451 0.02714582 -0.008904776
0000b0 de 48 15 3b c1 9f ef 3a 11 97 fc bc b8 a3 10 bd
       0.0022779028 0.0018281863 -0.030833753 -0.035312384
0000c0 83 e0 c5 3c 64 bb 7a 3b 0a 51 09 3c 6f 34 36 bd
       0.024154907 0.0038258666 0.008381138 -0.0444836
0000d0 56 f9 b1 bc b3 2b 95 bc 53 c6 19 bd 28 25 62 bc
       -0.021725338 -0.018209314 -0.037542652 -0.013802804
0000e0 02 a0 13 3c 3c ac ee bc 17 ee 08 3c 91 55 c0 3c
       0.009010317 -0.029134862 0.008357546 0.023478301
0000f0 cb 2a f8 3c f8 a1 f9 3b 03 cf a9 3c 1b ca da bc
       0.030293843 0.007618185 0.020728594 -0.0267077
000100 b7 85 f3 bb 33 f6 56 bd 28 fa a9 bb 0b 67 c2 bb
       -0.0074317115 -0.052480888 -0.0051872917 -0.005932694
000110 db 19 8f bc ee 94 b1 3c d9 3b 92 bc 3c 94 12 bd
       -0.017468384 0.02167746 -0.017850803 -0.0357859
000120 f2 b8 20 3d 41 e6 24 bc f2 80 e7 3b b4 dc 8b 3b
       0.039238878 -0.010064662 0.007064932 0.004268253
000130 b0 7d df 3c 3a 23 86 bc 3c 13 25 bd 69 05 2d 3d
       0.027281612 -0.01637422 -0.040301546 0.042241488
000140 d2 85 21 bd 44 5f f4 3a c1 18 1e 3d 65 5a 7d 3c
       -0.03943426 0.0018644114 0.038597826 0.015463446
000150 1b 0e ec bc 00 f6 b4 bc 1f b2 57 bc af 48 0e bc
       -0.02881532 -0.022089958 -0.013165026 -0.008684321
000160 03 5a 60 bc 00 41 85 3b 01 01 cc bc 84 a7 0a bd
       -0.0136933355 0.0040665865 -0.024902822 -0.03385116
000170 af 3b 99 bb 95 73 be bb 79 a7 b7 3c 1d 3a e5 bc
       -0.0046763043 -0.0058121183 0.022418724 -0.027981812
000180 7f 48 b5 3b b4 9d 27 3d d8 37 62 bc 57 19 cd bc
       0.005532324 0.04092188 -0.0138072595 -0.025036497
000190 09 6d ea 3c 34 63 96 3c 5a cf 15 bd c0 92 2b 3d
       0.028616445 0.01835785 -0.0365747 0.041888
0001a0 35 03 ef 3c a5 05 77 bc fa 0e 9d bc 22 76 f6 3c
       0.029176334 -0.015077029 -0.01917218 0.030085627
0001b0 4a 55 9d bb 03 f9 2c 3d 68 38 8c 39 44 45 39 3b
       -0.004801427 0.042229664 0.00026744907 0.0028270045
0001c0 08 16 26 3d 80 29 ae bc 12 e1 13 3d c4 a1 4b 3c
       0.040548354 -0.021260023 0.036103316 0.012428705
0001d0 52 80 87 3d 0b 98 a2 bc 54 51 08 bd 87 b1 0c bd
       0.06616272 -0.01984789 -0.033280686 -0.03434899
0001e0 0b f7 53 bc a0 5f b7 bc 03 bb 03 bc 75 fd 20 bd
       -0.012937318 -0.022384465 -0.008040193 -0.039304215
0001f0 27 fd 93 bb 67 ee a3 bc 12 3e 89 bc e4 bc cd bb
       -0.004516262 -0.02001114 -0.01675323 -0.006278621
000200 bd 42 30 bd 8c bf 55 3b 75 71 66 bc bd c8 8b bc
       -0.043032397 0.0032615392 -0.014065136 -0.017063493
000210 a5 57 d8 3c 4e 81 bf 3c 5a b9 3e bb 70 1d c5 3a
       0.02640898 0.023377087 -0.0029102177 0.001503868
000220 1c 56 31 3b e6 51 ad bc f6 f0 1a bd 3a dd 24 bb
       0.0027059382 -0.021157216 -0.037827455 -0.0025156275
000230 0d 5c 32 3c e9 fd 03 3c 09 00 2d bd 6e 07 f9 3c
       0.010886204 0.008056142 -0.04223636 0.03039905
000240 c8 2b e6 3b f1 b7 8a bc e0 54 1f 3d 33 bd 3d 3c
       0.007024262 -0.016933413 0.038899302 0.011580753
000250 80 8c 18 bd e2 67 0a 3d c7 b4 80 3c e8 b2 01 39
       -0.037243366 0.033790477 0.015711201 0.00012369046
000260 3a e5 82 3d 8a 0c 11 bd f6 a4 34 3b f1 27 1f bc
       0.06391378 -0.03541235 0.0027564145 -0.009714113
000270 71 54 0d bd ab cf 85 3b 14 74 eb 3a 93 ad 74 3c
       -0.034504358 0.004083594 0.0017963671 0.014933961
000280 9f 69 30 3d 8a 4b 1f 3d 4a 51 25 3b 47 1b 8a 3b
       0.043069478 0.0388904 0.0025225454 0.0042146775
000290 7c 5a 0e bc 4b 86 12 3d aa 5d cf bc 2f 7e 16 3d
       -0.008688565 0.035772603 -0.025313217 0.03674143
0002a0 23 1b 27 bd a1 b0 1a 3c 4e 70 18 bd 6d 01 f7 ba
       -0.040797364 0.009441526 -0.037216477 -0.0018845029
0002b0 2a 35 e5 bc 25 0e fa bc a5 f0 c0 bb c2 92 28 bc
       -0.027979452 -0.030524323 -0.005888062 -0.010288896
0002c0 81 17 d6 bc 64 f2 04 bd 9e 0e a0 3c 7d c7 be bc
       -0.026134254 -0.032457724 0.01953822 -0.023288483
0002d0 a9 54 2b 3d 16 31 1f 3d 10 e5 eb bc 70 40 04 3d
       0.041828785 0.03886517 -0.028795749 0.032288015
0002e0 66 8c f7 bc c4 90 98 3d 09 ff 0f 3b 0b 37 db 3c
       -0.030218314 0.07449487 0.002197208 0.026759645
0002f0 6b 46 15 bd 42 de 20 bd f1 9f ef 3c d7 7c 88 bb
       -0.03644411 -0.03927446 0.02925107 -0.0041652727
000300 0b dd 23 bc 5a 35 ff bc 8b 3e 99 bb 3e 77 8b bd
       -0.010001431 -0.03115337 -0.004676645 -0.06809853
000310 fc d3 a7 3b 40 b0 9c 3a 9d e3 fa bc 73 c2 bc bc
       0.005121706 0.0011954382 -0.030626113 -0.02304194
000320 d7 0e 0f bd ee 83 59 3c c8 6f dc bc c4 f3 b9 bc
       -0.03492626 0.013276083 -0.02690877 -0.022699244
000330 48 4f 2f bd af d0 45 3e 8d 5d c3 bc d9 98 f6 bc
       -0.042800218 0.19317888 -0.02384832 -0.03010218
000340 fe f1 71 bb 8f 47 8c bc ef c7 79 bb 52 10 11 3d
       -0.003691792 -0.017123966 -0.0038113554 0.035415955
000350 50 dd 9e bc c4 bf a7 3c a7 ca 8f bb 21 9e ec bc
       -0.01939264 0.020477183 -0.0043881717 -0.028883995
000360 11 e6 08 3b 5a d5 98 bc ec 75 29 bd 13 b5 76 bc
       0.0020889083 -0.018656421 -0.041372225 -0.01505782
000370 f2 58 7f bc e7 3a 2b bd c6 00 15 3d 41 96 66 bb
       -0.015585171 -0.04180422 0.03637769 -0.0035184773
000380 16 c9 1e 3d a3 2d 23 3d 06 be 2f ba bd f7 93 3c
       0.03876599 0.039838444 -0.0006704036 0.018062467
000390 42 38 09 bb 74 9b 0c 3a ca a2 09 3d 0b de b5 3c
       -0.0020938073 0.00053637405 0.033602513 0.022200605
0003a0 73 d8 05 3b 19 74 f2 bc 59 7f b2 3c eb a9 c0 bb
       0.0020423203 -0.029596375 0.02178924 -0.005879631
0003b0 06 8e 95 bc 30 1d 29 3c b0 60 f1 bc 11 3c 62 3c
       -0.018256199 0.0103219 -0.02946505 0.013808266
0003c0 16 1d de bc b2 b8 05 bc b4 cd 8f b8 66 d3 0f bd
       -0.027113479 -0.008161711 -6.8570866e-05 -0.035113715
0003d0 d1 fa 33 3d b2 ff 59 3a bb e1 07 3d d4 dd 29 bd
       0.04394037 0.00083159946 0.033174258 -0.041471317
0003e0 e8 41 bb 3c f2 da 7f 3c 9d 66 a1 3c ac 14 15 bc
       0.022858575 0.0156161655 0.01970225 -0.009099167
0003f0 00 69 ad b9 18 1a aa bc 55 2a a7 bc 7e c5 b1 bc
       -0.00033075362 -0.020764396 -0.020405928 -0.021700617
